backend/artifacts/bayes_trait_estimator.pt (torch, 8765 bytes, 6 tensors)

net.0.weight f4 [32, 4]
-0.62970984 -0.08684584 0.22407836 -0.021044062 -0.28922638 -0.4892367 0.19782631 0.23307636
-0.29494306 -0.40714943 0.3281644 0.2610356 -0.2596129 0.5122253 0.6275071 -0.21699001
0.024408653 0.40379265 0.116071135 -0.12863071 0.43183282 -0.31539065 0.5362012 0.6241773
-0.5617498 0.45880058 0.3690791 0.58148795 0.10449144 0.34585032 -0.2800381 -0.5065007
-0.24333742 -0.107538715 0.073560625 0.38141546 3.5829686e-07 8.397729e-06 -1.3512536e-05 -0.10258774
0.2846661 0.4433321 -0.32227454 0.52667445 0.38912684 -0.5331686 0.18223098 0.38238138
0.6246358 0.4563252 0.42544425 -0.29186046 0.38531917 0.65152425 0.55720824 0.1832781
-0.22406673 0.039334003 -0.25078902 0.004308735 -0.0001291285 -0.23813412 -0.2535925 -9.708048e-07
0.5441479 -0.081496306 -0.5286624 -0.45147014 0.42512184 0.049363583 -0.35463333 0.119907275
-0.1655608 0.46845105 -0.3695219 -0.3636764 0.05721713 -0.16858113 -0.0004573271 -2.7233168e-06
0.6555371 0.18958534 -0.020957937 -0.21803942 0.22358376 0.06905493 -0.0014945684 -0.26907662
-0.6197252 0.25320998 -0.33531117 0.5173603 -0.041491468 0.23285137 0.56318194 0.10038852
0.39559337 0.23242442 -0.5239379 0.11776006 -0.2500504 0.7384563 -0.05858324 0.61269325
-1.3428651e-06 -4.3815447e-07 -0.036695324 -0.18809904 -0.32212263 -0.17640312 0.2910668 0.384657
0.52391416 -0.52002954 -0.0032712773 0.46152562 -0.24209155 -0.5339287 0.4032263 0.36886176
-0.07605137 -0.10481937 -0.28462183 9.240515e-06 0.3323718 -0.6152461 0.1456631 0.42774674
00000000: aa34 21bf 3bdc b1bd cc74 653e 9964 acbc
00000010: 7b15 94be 3c7d fabe fb92 4a3e 92ab 6e3e
00000020: c702 97be e475 d0be 2a05 a83e 75a6 853e
00000030: fbeb 84be 3221 033f 4ea4 203f a132 5ebe
00000040: a8f4 c73c e9bd ce3e b4b6 ed3d c5b7 03be
00000050: 3119 dd3e e27a a1be 7b44 093f 15ca 1f3f
00000060: d6ce 0fbf e9e7 ea3e f0f7 bc3e 65dc 143f
00000070: 9cff d53d 4b13 b13e 2761 8fbe 08aa 01bf
00000080: 722d 79be 423d dcbd f4a6 963d e348 c33e
00000090: f25b c034 f9e3 0c37 e6b3 62b7 8519 d2bd
000000a0: c1bf 913e 6dfc e23e 2b01 a5be 23d4 063f
000000b0: a23b c73e bd7d 08bf c29a 3a3e 7ec7 c33e
000000c0: 22e8 1f3f 75a3 e93e d4d3 d93e bc6e 95be
000000d0: 8e48 c53e 4bca 263f 33a5 0e3f 41ad 3b3e
000000e0: c071 65be b11c 213d 6b67 80be 4a30 8d3b
000000f0: ab66 07b9 6ed9 73be e0d6 81be 994c 82b5
00000100: 474d 0b3f 89e7 a6bd 6b56 07bf 1827 e7be
00000110: 92a9 d93e 7831 4a3d 8092 b5be f291 f53d
00000120: c588 29be d1d8 ef3e f931 bdbe cb33 babe
00000130: 825c 6a3d 88a0 2cbe 68c5 efb9 3ac2 36b6
00000140: 48d1 273f a922 423e fbaf abbc ba45 5fbe
00000150: 24f3 643e ac6c 8d3d 65e5 c3ba 69c4 89be
00000160: 50a6 1ebf bda4 813e e8ad abbe ba71 043f
00000170: f5f2 29bd 9770 6e3e b12c 103f 7f98 cd3d
00000180: 378b ca3e ab00 6e3e cb20 06bf 302c f13d
00000190: 9b06 80be 790b 3d3f fbf4 6fbd 77d9 1c3f
000001a0: 7e3c b4b5 7e3b ebb4 d64d 16bd 099d 40be
000001b0: 42ed a4be 05a3 34be b506 953e c3f1 c43e
000001c0: 3d1f 063f a820 05bf ed62 56bb 164d ec3e
000001d0: d9e6 77be 8daf 08bf ad73 ce3e 73db bc3e
000001e0: d2c0 9bbd 8aab d6bd f4b9 91be b607 1b37
000001f0: a32c aa3e c580 1dbf b528 153e 9f01 db3e

net.0.bias f4 [32]
0.48650768 0.4202872 0.32102063 0.016150828 0.12866904 0.19049096 -0.09430176 0.47527307
0.11169 -0.32813025 -0.19057298 0.03634352 -0.27474844 0.4527079 -0.07868618 -0.00019527732
0.6140652 0.08718867 0.5023284 -0.26930246 -0.018533679 -0.27784702 0.45122683 0.074616276
0.41895393 -0.22213724 -0.005268166 0.16231063 0.23310931 0.25780883 -0.05221332 0.36065277
00000000: 8917 f93e e22f d73e d15c a43e be4e 843c
00000010: d1c1 033e 1010 433e 4821 c1bd fe56 f33e
00000020: babd e43d b000 a8be 9025 43be f1dc 143d
00000030: d4ab 8cbe 54c9 e73e 3826 a1bd 5bc3 4cb9
00000040: 6033 1d3f f98f b23d 9898 003f 03e2 89be
00000050: f1d3 97bc f741 8ebe 3407 e73e 6bd0 983d
00000060: 2181 d63e f277 63be 94a0 acbb c234 263e
00000070: 35b4 6e3e 85ff 833e a2dd 55bd 7ba7 b83e

net.3.weight f4 [32, 32]
0.036676534 -0.03473166 -0.32769924 0.36175668 0.33102682 -0.18147317 0.07059256 0.21191406
-0.17873457 -0.0014192355 0.20305707 -0.063808724 0.1855686 0.20278859 -3.931702e-05 0.000259051
0.09263596 0.1558601 0.06502239 -1.7932607e-06 0.087731875 0.09880289 0.23262577 0.10066006
0.03985194 0.17242365 -0.0035330127 -0.0558817 -0.03218301 -0.27030036 1.1046172e-06 -0.23884566
-0.34391555 -0.09138813 0.03702008 0.13619837 0.19762188 0.11445735 0.05917809 -0.22978605
-0.07959696 0.00017988979 0.100663014 -0.03142342 0.3341709 0.15695177 -2.1670266e-07 -0.034549206
-0.2738416 0.08792748 -0.2452777 3.8120856e-05 0.10117472 -0.03250267 0.018806191 0.07367227
-0.035790116 0.19809012 -5.4167776e-06 0.0743837 0.2098167 -0.14708826 0.026787207 0.17623845
-0.02835527 0.03474057 -0.062184446 0.020510234 -0.053712163 -0.014903753 -0.094258964 -0.112599045
-0.05222264 0.00036803447 -0.004500473 0.055209804 0.00045910696 -0.039493356 0.0011735107 -4.480292e-06
0.043570254 -0.09851037 -0.009818897 0.0020889682 -0.0062807533 0.010410349 -0.10846643 0.028312242
0.14098434 -0.011705299 8.042661e-06 0.0142204445 -0.013703996 0.051326416 0.0009967646 -0.061549913
0.29243806 0.13299382 0.20179616 0.35688448 0.080048196 -0.08877795 0.21704872 -0.040806755
0.22410578 1.9727497e-07 -0.19043732 0.029310023 0.07008369 0.074876264 0.03121434 0.0032811146
-0.19840518 -0.15376876 0.11183234 0.038058963 -0.20153476 -0.07649639 -0.13479751 0.28655156
-0.06097895 -0.059595965 8.111771e-05 0.23880722 0.019088559 0.105348095 -4.5504917e-06 0.052998163
-0.3318015 -0.12618007 -0.10343158 0.076129325 0.09997038 0.12364707 -0.0022168797 0.12342115
-0.25358972 0.016956551 0.16658117 -0.24801159 0.15594433 0.17569678 -4.1844692e-07 2.7587066e-07
0.15996772 0.2626796 0.17741436 -0.010097199 0.2491816 -0.03911297 -0.056853224 0.27032533
0.19560583 -0.0129487375 3.1992295e-07 -0.22019622 0.071615435 -0.20576301 0.014871351 -0.036186382
0.11524219 -0.16732611 -0.13545099 0.06837304 -0.15256812 -0.10625263 -0.120863736 -0.09730532
0.08537104 1.1117052e-07 0.074027464 0.0913835 -0.010873408 -0.017549312 0.011268816 -1.9575435e-05
-0.11953912 0.028287858 -0.08640924 1.0930453e-05 -0.016507361 2.897099e-05 0.105560005 -0.08815288
0.033624414 -0.029883834 -0.030518454 0.06376793 -0.038864505 0.08405612 1.4252586e-06 0.01827191
0.0639141 0.06646412 0.08960845 0.13428502 0.35729563 -0.03852732 0.3372548 0.28875312
0.14149159 -0.018261027 -0.25404862 -0.30015847 -0.020396117 -0.003726446 -1.672296e-05 -0.011919154
-0.08860086 -0.072171114 0.09555615 1.2860309e-06 -0.030529857 -0.013581876 0.19307856 0.025573932
0.06598302 0.23477459 0.03953194 0.16899346 -0.23715112 -0.16215403 -8.517346e-07 -0.13297175
-0.31842414 -0.0013653748 0.028578877 -0.22088474 0.011107164 0.31596512 -0.10602466 -0.31288534
0.28864083 0.0006620693 0.12551396 0.30064747 -0.09815616 0.15596768 -0.012256256 0.026129054
0.056951173 0.15736006 -0.047517713 6.221102e-07 0.024889207 -0.056210857 -0.15424259 0.10239541
0.053198032 0.0030785357 8.669958e-07 0.08105153 0.22603554 0.109576054 -0.014531023 0.14489546
00000000: 223a 163d c942 0ebd 32c8 a7be 2c38 b93e
00000010: 597c a93e 1ad4 39be d592 903d 0000 593e
00000020: 3206 37be a405 baba 31ee 4f3e 26ae 82bd
00000030: b205 3e3e d0a7 4f3e 54e8 24b8 3dd1 8739
00000040: ecb7 bd3d ca99 1f3e 752a 853d f8af f0b5
00000050: c5ac b33d 2b59 ca3d 7335 6e3e dd26 ce3d
00000060: ca3b 233d d38f 303e 1e8a 67bb 36e4 64bd
00000070: 55d2 03bd cf64 8abe 5c42 9435 f593 74be
00000080: b315 b0be b329 bbbd 5ea2 173d 9677 0b3e
00000090: 645d 4a3e 9d68 ea3d ba64 723d 094d 6bbe
000000a0: bb03 a3bd cca0 3c39 6928 ce3d d8b5 00bd
000000b0: 7318 ab3e f7b7 203e c6ae 68b4 7883 0dbd
000000c0: f734 8cbe 5313 b43d 142a 7bbe f5e3 1f38
000000d0: b134 cf3d 8521 05bd 710f 9a3c 7de1 963d
000000e0: a898 12bd 23d8 4a3e c4c1 b5b6 7b56 983d
000000f0: 30da 563e 4e9e 16be d870 db3c da77 343e
00000100: 5049 e8bc 214c 0e3d 1eb5 7ebd 1405 a83c
00000110: 4901 5cbd df2e 74bc d80a c1bd 549a e6bd
00000120: 68e7 55bd c0f4 c039 b478 93bb ad23 623d
00000130: 4bb4 f039 c9c3 21bd 7cd0 993a 6a55 96b6
00000140: b976 323d cebf c9bd 70df 20bc 12e7 083b
00000150: c7ce cdbb 2b90 2a3c a623 debd 13ef e73c
00000160: 335e 103e 95c7 3fbc f7ee 0637 defc 683c
00000170: ba86 60bc a63b 523d dfa5 823a c31b 7cbd
00000180: 71ba 953e 882f 083e a7a3 4e3e 90b9 b63e
00000190: 4ff0 a33d 37d1 b5bd 0542 5e3e fc24 27bd
000001a0: fc7b 653e 88d2 5334 0002 43be 931b f03c
000001b0: 0a88 8f3d ba58 993d 37b5 ff3c f807 573b
000001c0: ba2a 4bbe 8f75 1dbe 5b08 e53d b7e3 1b3d
000001d0: 215f 4ebe 24aa 9cbd 5c08 0abe e3b6 923e
000001e0: 10c5 79bd e61a 74bd bd1d aa38 e189 743e
000001f0: 9c5f 9c3c bec0 d73d 6db0 98b6 9a14 593d
00000200: e3e1 a9be 5935 01be f0d3 d3bd b1e9 9b3d
00000210: 45bd cc3d ad3a fd3d 1249 11bb 3ac4 fc3d
00000220: 83d6 81be 77e8 8a3c 4194 2a3e c0f6 7dbe
00000230: dfaf 1f3e dbe9 333e e8a6 e0b4 601b 9434
00000240: 94ce 233e f17d 863e 1cac 353e b96e 25bc
00000250: 7629 7f3e ec34 20bd edde 68bd 1568 8a3e
00000260: e54c 483e f126 54bc e0c1 ab34 1e7b 61be
00000270: 1dab 923d 8ab3 52be f8a6 733c 2c38 14bd
00000280: 1904 ec3d 8957 2bbe aab3 0abe 2a07 8c3d
00000290: d13a 1cbe fb9a d9bd 6887 f7bd 0348 c7bd
000002a0: 03d7 ae3d a4bc ee33 b69b 973d 4627 bb3d
000002b0: 6126 32bc 93c3 8fbc d7a0 383c ed35 a4b7
000002c0: edd0 f4bd f0bb e73c 54f7 b0bd f061 3737
000002d0: 723a 87bc ba06 f337 d82f d83d 7f89 b4bd
000002e0: c1b9 093d f1ce f4bc d601 fabc c398 823d
000002f0: 6330 1fbd 9d25 ac3d 834b bf35 f9ae 953c
00000300: 65e5 823d 571e 883d a384 b73d 0382 093e
00000310: 74ef b63e d3ce 1dbd a9ac ac3e 73d7 933e
00000320: 2ce3 103e 2698 95bc a912 82be 5fae 99be
00000330: c215 a7bc 6437 74bb 4848 8cb7 8e48 43bc
00000340: 5e74 b5bd 73ce 93bd f1b2 c33d af9b ac35
00000350: c019 fabc 8486 5ebc 63b6 453e 6c80 d13c
00000360: 1b22 873d c068 703e 3eec 213d 9f0c 2d3e
00000370: bed7 72be b50b 26be c2a2 64b5 bf29 08be
00000380: 7d08 a3be 60f6 b2ba 401e ea3c 9c2f 62be
00000390: d3fa 353c 2ec6 a13e 7523 d9bd 8232 a0be
000003a0: bbc8 933e b88e 2d3a bb86 003e 77ee 993e
000003b0: 1906 c9bd feb5 1f3e 77ce 48bc 990c d63c
000003c0: a245 693d ff22 213e efa1 42bd 16ff 2635
000003d0: 73e4 cb3c 5b3d 66bd c5f1 1dbe afb4 d13d
000003e0: 2ee6 593d 42c1 493b 7fbb 6835 58fe a53d
000003f0: dc75 673e 6969 e03d 8713 6ebc 7a5f 143e

net.3.bias f4 [32]
0.121803835 -0.07106676 -0.18254429 0.1430215 -0.08170828 -0.21324046 0.28482413 -0.03611235
-0.112751275 0.1883878 0.110022835 -0.13021006 0.09829824 0.19419584 0.0105644185 0.122979835
0.051621962 0.032612864 0.20705606 0.1693488 0.084574044 0.096810445 -0.02661365 0.11423559
0.048186466 -0.07472478 -0.017408943 0.24955674 -0.21129711 0.060197484 -0.012279579 0.20241527
00000000: 4a74 f93d 738b 91bd e4ec 3abe 3a74 123e
00000010: ac56 a7bd b55b 5abe 78d4 913e 8bea 13bd
00000020: 24ea e6bd bbe8 403e a753 e13d c955 05be
00000030: 9650 c93d 46db 463e 6216 2d3c dadc fb3d
00000040: 8d71 533d 1195 053d 8106 543e c669 2d3e
00000050: 2835 ad3d 8e44 c63d df04 dabc 59f4 e93d
00000060: 2c5f 453d 4e09 99bd 339d 8ebc cd8b 7f3e
00000070: 455e 58be a391 763d 4a30 49bc f345 4f3e

net.6.weight f4 [4, 32]
0.0019074811 0.25159162 -0.03891921 -0.29635254 0.2750471 -0.016004916 -0.34910738 0.23497257
-0.28168964 -0.28205582 0.30521348 0.024867639 -0.25045815 0.06258209 -0.031803604 0.28777152
-0.3002637 -0.03458684 -0.04596175 0.15407199 -0.10363301 0.24448836 -0.2159988 -0.12219434
-0.23455426 -0.030422507 0.2162538 0.2047684 0.2320036 -0.17789972 0.27092007 0.32506067
0.30113906 0.1415993 0.04658728 -0.085437804 0.26056486 0.045906443 0.29934233 -0.19491969
0.10886247 -0.030414248 -0.15305352 -0.06376897 -0.087488525 -0.30727667 0.21202904 -0.0030376832
-0.38981912 0.12495848 0.38499525 -0.1360864 -0.33706585 -0.015162109 -0.04240583 0.3435272
-0.21375838 -0.114925854 0.24508871 0.18985353 0.12705976 0.12180248 -0.15682183 -0.2793297
-0.10805645 0.21853794 0.06621272 0.2549031 -0.05111788 0.064478144 -0.07648959 0.01985877
0.08872348 0.14373627 0.06911345 -0.19731444 0.17916067 0.16333468 0.09310494 -0.07699003
-0.07494902 -0.23562615 -0.1619193 0.26872322 0.091954105 0.16509944 -0.19635127 -0.021738425
0.2668751 0.051988076 0.21522786 -0.30635056 0.09687459 0.09501238 -0.054469522 -0.20966685
-0.20966813 0.2904892 -0.07374226 -0.05854882 -0.13924152 -0.08882291 -0.21757185 0.24903856
0.19445395 0.30260223 0.08307583 0.316171 0.19448093 0.17811374 0.04930725 0.10879255
-0.06741772 -0.3911326 -0.24685204 -0.3383144 0.18659735 -0.25610793 0.25543162 -0.07938714
0.086764336 0.0033195578 -0.29107115 -0.0818328 0.23437981 0.14969923 -0.2738743 -0.27871895
00000000: 7204 fa3a 9ed0 803e c069 1fbd 85bb 97be
00000010: f9d2 8c3e be1c 83bc 34be b2be a69c 703e
00000020: a039 90be 9f69 90be f144 9c3e 38b7 cb3c
00000030: 0d3c 80be 0a2b 803d 7f44 02bd ca56 933e
00000040: 2abc 99be eeaa 0dbd 6342 3cbd 0cc5 1d3e
00000050: 8b3d d4bd 285b 7a3e ca2e 5dbe 0741 fabd
00000060: fe2e 70be 9f38 f9bc a371 5d3e cfae 513e
00000070: 5a92 6d3e 582b 36be 09b6 8a3e 5a6e a63e
00000080: e62e 9a3e 68ff 103e 4ed2 3e3d 04fa aebd
00000090: c268 853e 6508 3c3d 6643 993e 0799 47be
000000a0: 49f3 de3d 4d27 f9bc 10ba 1cbe 4e99 82bd
000000b0: 2f2d b3bd 5e53 9dbe 241e 593e de13 47bb
000000c0: 5f96 c7be 3bea ff3d 191e c53e 3c5a 0bbe
000000d0: e593 acbe 7f6a 78bc bcb1 2dbd cce2 af3e
000000e0: 7ae3 5abe 3f5e ebbd 89f8 7a3e f768 423e
000000f0: f41b 023e 9473 f93d e795 20be 4d04 8fbe
00000100: b34c ddbd 69c8 5f3e 899a 873d a982 823e
00000110: fb60 51bd 1e0d 843d 93a6 9cbd dcae a23c
00000120: a8b4 b53d 9a2f 133e 5a8b 8d3d cc0c 4abe
00000130: e575 373e 3541 273e cead be3d f3ac 9dbd
00000140: df7e 99bd fb47 71be 2cce 25be 1796 893e
00000150: 6f52 bc3d d40f 293e 4f10 49be c814 b2bc
00000160: daa3 883e 73f1 543d b164 5c3e fbd9 9cbe
00000170: 2f66 c63d da95 c23d 6f1b 5fbd e8b2 56be
00000180: 3eb3 56be 00bb 943e 2f06 97bd e3d0 6fbd
00000190: 5495 0ebe c9e8 b5bd 28cb 5ebe f703 7f3e
000001a0: f01e 473e aeee 9a3e a923 aa3d 2ae1 a13e
000001b0: 0226 473e 7363 363e 66f6 493d a1ce de3d
000001c0: 4d12 8abd 8842 c8be c8c6 7cbe 8c37 adbe
000001d0: 6013 3f3e 9420 83be efc7 823e ba95 a2bd
000001e0: 80b1 b13d f08c 593b 4707 95be f497 a7bd
000001f0: 4301 703e c14a 193e 4139 8cbe 40b4 8ebe

net.6.bias f4 [4]
-0.060496833 -0.07448735 -0.1575308 0.032719675
00000000: 87cb 77bd d38c 98bd c14f 21be 1105 063d
